2025-01-21 10:42:31,946 - train - INFO - TopicExpan(
  (doc_encoder): BertDocEncoder(
    (model): BertModel(
      (embeddings): BertEmbeddings(
        (word_embeddings): Embedding(30522, 384, padding_idx=0)
        (position_embeddings): Embedding(512, 384)
        (token_type_embeddings): Embedding(2, 384)
        (LayerNorm): LayerNorm((384,), eps=1e-12, elementwise_affine=True)
        (dropout): Dropout(p=0.1, inplace=False)
      )
      (encoder): BertEncoder(
        (layer): ModuleList(
          (0-5): 6 x BertLayer(
            (attention): BertAttention(
              (self): BertSdpaSelfAttention(
                (query): Linear(in_features=384, out_features=384, bias=True)
                (key): Linear(in_features=384, out_features=384, bias=True)
                (value): Linear(in_features=384, out_features=384, bias=True)
                (dropout): Dropout(p=0.1, inplace=False)
              )
              (output): BertSelfOutput(
                (dense): Linear(in_features=384, out_features=384, bias=True)
                (LayerNorm): LayerNorm((384,), eps=1e-12, elementwise_affine=True)
                (dropout): Dropout(p=0.1, inplace=False)
              )
            )
            (intermediate): BertIntermediate(
              (dense): Linear(in_features=384, out_features=1536, bias=True)
              (intermediate_act_fn): GELUActivation()
            )
            (output): BertOutput(
              (dense): Linear(in_features=1536, out_features=384, bias=True)
              (LayerNorm): LayerNorm((384,), eps=1e-12, elementwise_affine=True)
              (dropout): Dropout(p=0.1, inplace=False)
            )
          )
        )
      )
      (pooler): BertPooler(
        (dense): Linear(in_features=384, out_features=384, bias=True)
        (activation): Tanh()
      )
    )
    (input_embeddings): BertEmbeddings(
      (word_embeddings): Embedding(30522, 384, padding_idx=0)
      (position_embeddings): Embedding(512, 384)
      (token_type_embeddings): Embedding(2, 384)
      (LayerNorm): LayerNorm((384,), eps=1e-12, elementwise_affine=True)
      (dropout): Dropout(p=0.1, inplace=False)
    )
  )
  (phrase_decoder): TransformerPhraseDecoder(
    (input_embeddings): BertEmbeddings(
      (word_embeddings): Embedding(30522, 384, padding_idx=0)
      (position_embeddings): Embedding(512, 384)
      (token_type_embeddings): Embedding(2, 384)
      (LayerNorm): LayerNorm((384,), eps=1e-12, elementwise_affine=True)
      (dropout): Dropout(p=0.1, inplace=False)
    )
    (output_embeddings): Linear(in_features=384, out_features=30522, bias=False)
    (context_proj): Linear(in_features=384, out_features=384, bias=True)
    (context_norm): LayerNorm((384,), eps=1e-05, elementwise_affine=True)
    (model): TransformerDecoder(
      (layers): ModuleList(
        (0-7): 8 x TransformerDecoderLayer(
          (self_attn): MultiheadAttention(
            (out_proj): NonDynamicallyQuantizableLinear(in_features=384, out_features=384, bias=True)
          )
          (multihead_attn): MultiheadAttention(
            (out_proj): NonDynamicallyQuantizableLinear(in_features=384, out_features=384, bias=True)
          )
          (linear1): Linear(in_features=384, out_features=2048, bias=True)
          (dropout): Dropout(p=0.1, inplace=False)
          (linear2): Linear(in_features=2048, out_features=384, bias=True)
          (norm1): LayerNorm((384,), eps=1e-05, elementwise_affine=True)
          (norm2): LayerNorm((384,), eps=1e-05, elementwise_affine=True)
          (norm3): LayerNorm((384,), eps=1e-05, elementwise_affine=True)
          (dropout1): Dropout(p=0.1, inplace=False)
          (dropout2): Dropout(p=0.1, inplace=False)
          (dropout3): Dropout(p=0.1, inplace=False)
        )
      )
    )
  )
  (topic_encoder): GCNTopicEncoder(
    (downward_layers): ModuleList(
      (0-1): 2 x GraphConv(in=384, out=384, normalization=right, activation=None)
    )
    (upward_layers): ModuleList(
      (0-1): 2 x GraphConv(in=384, out=384, normalization=right, activation=None)
    )
    (sideward_layers): ModuleList(
      (0-1): 2 x GraphConv(in=384, out=384, normalization=right, activation=None)
    )
  )
  (interaction): BilinearInteraction()
  (linear_combiner): Linear(in_features=768, out_features=384, bias=True)
)
Trainable parameters: 57994624
2025-01-21 10:44:05,864 - train - INFO - TopicExpan(
  (doc_encoder): BertDocEncoder(
    (model): BertModel(
      (embeddings): BertEmbeddings(
        (word_embeddings): Embedding(30522, 384, padding_idx=0)
        (position_embeddings): Embedding(512, 384)
        (token_type_embeddings): Embedding(2, 384)
        (LayerNorm): LayerNorm((384,), eps=1e-12, elementwise_affine=True)
        (dropout): Dropout(p=0.1, inplace=False)
      )
      (encoder): BertEncoder(
        (layer): ModuleList(
          (0-5): 6 x BertLayer(
            (attention): BertAttention(
              (self): BertSdpaSelfAttention(
                (query): Linear(in_features=384, out_features=384, bias=True)
                (key): Linear(in_features=384, out_features=384, bias=True)
                (value): Linear(in_features=384, out_features=384, bias=True)
                (dropout): Dropout(p=0.1, inplace=False)
              )
              (output): BertSelfOutput(
                (dense): Linear(in_features=384, out_features=384, bias=True)
                (LayerNorm): LayerNorm((384,), eps=1e-12, elementwise_affine=True)
                (dropout): Dropout(p=0.1, inplace=False)
              )
            )
            (intermediate): BertIntermediate(
              (dense): Linear(in_features=384, out_features=1536, bias=True)
              (intermediate_act_fn): GELUActivation()
            )
            (output): BertOutput(
              (dense): Linear(in_features=1536, out_features=384, bias=True)
              (LayerNorm): LayerNorm((384,), eps=1e-12, elementwise_affine=True)
              (dropout): Dropout(p=0.1, inplace=False)
            )
          )
        )
      )
      (pooler): BertPooler(
        (dense): Linear(in_features=384, out_features=384, bias=True)
        (activation): Tanh()
      )
    )
    (input_embeddings): BertEmbeddings(
      (word_embeddings): Embedding(30522, 384, padding_idx=0)
      (position_embeddings): Embedding(512, 384)
      (token_type_embeddings): Embedding(2, 384)
      (LayerNorm): LayerNorm((384,), eps=1e-12, elementwise_affine=True)
      (dropout): Dropout(p=0.1, inplace=False)
    )
  )
  (phrase_decoder): TransformerPhraseDecoder(
    (input_embeddings): BertEmbeddings(
      (word_embeddings): Embedding(30522, 384, padding_idx=0)
      (position_embeddings): Embedding(512, 384)
      (token_type_embeddings): Embedding(2, 384)
      (LayerNorm): LayerNorm((384,), eps=1e-12, elementwise_affine=True)
      (dropout): Dropout(p=0.1, inplace=False)
    )
    (output_embeddings): Linear(in_features=384, out_features=30522, bias=False)
    (context_proj): Linear(in_features=384, out_features=384, bias=True)
    (context_norm): LayerNorm((384,), eps=1e-05, elementwise_affine=True)
    (model): TransformerDecoder(
      (layers): ModuleList(
        (0-7): 8 x TransformerDecoderLayer(
          (self_attn): MultiheadAttention(
            (out_proj): NonDynamicallyQuantizableLinear(in_features=384, out_features=384, bias=True)
          )
          (multihead_attn): MultiheadAttention(
            (out_proj): NonDynamicallyQuantizableLinear(in_features=384, out_features=384, bias=True)
          )
          (linear1): Linear(in_features=384, out_features=2048, bias=True)
          (dropout): Dropout(p=0.1, inplace=False)
          (linear2): Linear(in_features=2048, out_features=384, bias=True)
          (norm1): LayerNorm((384,), eps=1e-05, elementwise_affine=True)
          (norm2): LayerNorm((384,), eps=1e-05, elementwise_affine=True)
          (norm3): LayerNorm((384,), eps=1e-05, elementwise_affine=True)
          (dropout1): Dropout(p=0.1, inplace=False)
          (dropout2): Dropout(p=0.1, inplace=False)
          (dropout3): Dropout(p=0.1, inplace=False)
        )
      )
    )
  )
  (topic_encoder): GCNTopicEncoder(
    (downward_layers): ModuleList(
      (0-1): 2 x GraphConv(in=384, out=384, normalization=right, activation=None)
    )
    (upward_layers): ModuleList(
      (0-1): 2 x GraphConv(in=384, out=384, normalization=right, activation=None)
    )
    (sideward_layers): ModuleList(
      (0-1): 2 x GraphConv(in=384, out=384, normalization=right, activation=None)
    )
  )
  (interaction): BilinearInteraction()
  (linear_combiner): Linear(in_features=768, out_features=384, bias=True)
)
Trainable parameters: 57994624
2025-01-21 10:45:52,359 - train - INFO - TopicExpan(
  (doc_encoder): BertDocEncoder(
    (model): BertModel(
      (embeddings): BertEmbeddings(
        (word_embeddings): Embedding(30522, 384, padding_idx=0)
        (position_embeddings): Embedding(512, 384)
        (token_type_embeddings): Embedding(2, 384)
        (LayerNorm): LayerNorm((384,), eps=1e-12, elementwise_affine=True)
        (dropout): Dropout(p=0.1, inplace=False)
      )
      (encoder): BertEncoder(
        (layer): ModuleList(
          (0-5): 6 x BertLayer(
            (attention): BertAttention(
              (self): BertSdpaSelfAttention(
                (query): Linear(in_features=384, out_features=384, bias=True)
                (key): Linear(in_features=384, out_features=384, bias=True)
                (value): Linear(in_features=384, out_features=384, bias=True)
                (dropout): Dropout(p=0.1, inplace=False)
              )
              (output): BertSelfOutput(
                (dense): Linear(in_features=384, out_features=384, bias=True)
                (LayerNorm): LayerNorm((384,), eps=1e-12, elementwise_affine=True)
                (dropout): Dropout(p=0.1, inplace=False)
              )
            )
            (intermediate): BertIntermediate(
              (dense): Linear(in_features=384, out_features=1536, bias=True)
              (intermediate_act_fn): GELUActivation()
            )
            (output): BertOutput(
              (dense): Linear(in_features=1536, out_features=384, bias=True)
              (LayerNorm): LayerNorm((384,), eps=1e-12, elementwise_affine=True)
              (dropout): Dropout(p=0.1, inplace=False)
            )
          )
        )
      )
      (pooler): BertPooler(
        (dense): Linear(in_features=384, out_features=384, bias=True)
        (activation): Tanh()
      )
    )
    (input_embeddings): BertEmbeddings(
      (word_embeddings): Embedding(30522, 384, padding_idx=0)
      (position_embeddings): Embedding(512, 384)
      (token_type_embeddings): Embedding(2, 384)
      (LayerNorm): LayerNorm((384,), eps=1e-12, elementwise_affine=True)
      (dropout): Dropout(p=0.1, inplace=False)
    )
  )
  (phrase_decoder): TransformerPhraseDecoder(
    (input_embeddings): BertEmbeddings(
      (word_embeddings): Embedding(30522, 384, padding_idx=0)
      (position_embeddings): Embedding(512, 384)
      (token_type_embeddings): Embedding(2, 384)
      (LayerNorm): LayerNorm((384,), eps=1e-12, elementwise_affine=True)
      (dropout): Dropout(p=0.1, inplace=False)
    )
    (output_embeddings): Linear(in_features=384, out_features=30522, bias=False)
    (context_proj): Linear(in_features=384, out_features=384, bias=True)
    (context_norm): LayerNorm((384,), eps=1e-05, elementwise_affine=True)
    (model): TransformerDecoder(
      (layers): ModuleList(
        (0-7): 8 x TransformerDecoderLayer(
          (self_attn): MultiheadAttention(
            (out_proj): NonDynamicallyQuantizableLinear(in_features=384, out_features=384, bias=True)
          )
          (multihead_attn): MultiheadAttention(
            (out_proj): NonDynamicallyQuantizableLinear(in_features=384, out_features=384, bias=True)
          )
          (linear1): Linear(in_features=384, out_features=2048, bias=True)
          (dropout): Dropout(p=0.1, inplace=False)
          (linear2): Linear(in_features=2048, out_features=384, bias=True)
          (norm1): LayerNorm((384,), eps=1e-05, elementwise_affine=True)
          (norm2): LayerNorm((384,), eps=1e-05, elementwise_affine=True)
          (norm3): LayerNorm((384,), eps=1e-05, elementwise_affine=True)
          (dropout1): Dropout(p=0.1, inplace=False)
          (dropout2): Dropout(p=0.1, inplace=False)
          (dropout3): Dropout(p=0.1, inplace=False)
        )
      )
    )
  )
  (topic_encoder): GCNTopicEncoder(
    (downward_layers): ModuleList(
      (0-1): 2 x GraphConv(in=384, out=384, normalization=right, activation=None)
    )
    (upward_layers): ModuleList(
      (0-1): 2 x GraphConv(in=384, out=384, normalization=right, activation=None)
    )
    (sideward_layers): ModuleList(
      (0-1): 2 x GraphConv(in=384, out=384, normalization=right, activation=None)
    )
  )
  (interaction): BilinearInteraction()
  (linear_combiner): Linear(in_features=768, out_features=384, bias=True)
)
Trainable parameters: 57994624
2025-01-21 10:45:54,673 - trainer - INFO - ================================================================================
2025-01-21 10:45:54,674 - trainer - INFO - Starting epoch 1 at 2025-01-21 10:45:54
2025-01-21 10:46:00,781 - trainer - INFO - Epoch 1 completed at 2025-01-21 10:46:00
2025-01-21 10:46:00,781 - trainer - INFO -     epoch          : 1
…
