2025-01-21 11:01:04,762 - train - INFO - TopicExpan(
  (doc_encoder): BertDocEncoder(
    (model): BertModel(
      (embeddings): BertEmbeddings(
        (word_embeddings): Embedding(30522, 384, padding_idx=0)
        (position_embeddings): Embedding(512, 384)
        (token_type_embeddings): Embedding(2, 384)
        (LayerNorm): LayerNorm((384,), eps=1e-12, elementwise_affine=True)
        (dropout): Dropout(p=0.1, inplace=False)
      )
      (encoder): BertEncoder(
        (layer): ModuleList(
          (0-5): 6 x BertLayer(
            (attention): BertAttention(
              (self): BertSdpaSelfAttention(
                (query): Linear(in_features=384, out_features=384, bias=True)
                (key): Linear(in_features=384, out_features=384, bias=True)
                (value): Linear(in_features=384, out_features=384, bias=True)
                (dropout): Dropout(p=0.1, inplace=False)
              )
              (output): BertSelfOutput(
                (dense): Linear(in_features=384, out_features=384, bias=True)
                (LayerNorm): LayerNorm((384,), eps=1e-12, elementwise_affine=True)
                (dropout): Dropout(p=0.1, inplace=False)
              )
            )
            (intermediate): BertIntermediate(
              (dense): Linear(in_features=384, out_features=1536, bias=True)
              (intermediate_act_fn): GELUActivation()
            )
            (output): BertOutput(
              (dense): Linear(in_features=1536, out_features=384, bias=True)
              (LayerNorm): LayerNorm((384,), eps=1e-12, elementwise_affine=True)
              (dropout): Dropout(p=0.1, inplace=False)
            )
          )
        )
      )
      (pooler): BertPooler(
        (dense): Linear(in_features=384, out_features=384, bias=True)
        (activation): Tanh()
      )
    )
    (input_embeddings): BertEmbeddings(
      (word_embeddings): Embedding(30522, 384, padding_idx=0)
      (position_embeddings): Embedding(512, 384)
      (token_type_embeddings): Embedding(2, 384)
      (LayerNorm): LayerNorm((384,), eps=1e-12, elementwise_affine=True)
      (dropout): Dropout(p=0.1, inplace=False)
    )
  )
  (phrase_decoder): TransformerPhraseDecoder(
    (input_embeddings): BertEmbeddings(
      (word_embeddings): Embedding(30522, 384, padding_idx=0)
      (position_embeddings): Embedding(512, 384)
      (token_type_embeddings): Embedding(2, 384)
      (LayerNorm): LayerNorm((384,), eps=1e-12, elementwise_affine=True)
      (dropout): Dropout(p=0.1, inplace=False)
    )
    (output_embeddings): Linear(in_features=384, out_features=30522, bias=False)
    (context_proj): Linear(in_features=384, out_features=384, bias=True)
    (context_norm): LayerNorm((384,), eps=1e-05, elementwise_affine=True)
    (model): TransformerDecoder(
      (layers): ModuleList(
        (0-7): 8 x TransformerDecoderLayer(
          (self_attn): MultiheadAttention(
            (out_proj): NonDynamicallyQuantizableLinear(in_features=384, out_features=384, bias=True)
          )
          (multihead_attn): MultiheadAttention(
            (out_proj): NonDynamicallyQuantizableLinear(in_features=384, out_features=384, bias=True)
          )
          (linear1): Linear(in_features=384, out_features=2048, bias=True)
          (dropout): Dropout(p=0.1, inplace=False)
          (linear2): Linear(in_features=2048, out_features=384, bias=True)
          (norm1): LayerNorm((384,), eps=1e-05, elementwise_affine=True)
          (norm2): LayerNorm((384,), eps=1e-05, elementwise_affine=True)
          (norm3): LayerNorm((384,), eps=1e-05, elementwise_affine=True)
          (dropout1): Dropout(p=0.1, inplace=False)
          (dropout2): Dropout(p=0.1, inplace=False)
          (dropout3): Dropout(p=0.1, inplace=False)
        )
      )
    )
  )
  (topic_encoder): GCNTopicEncoder(
    (downward_layers): ModuleList(
      (0-1): 2 x GraphConv(in=384, out=384, normalization=right, activation=None)
    )
    (upward_layers): ModuleList(
      (0-1): 2 x GraphConv(in=384, out=384, normalization=right, activation=None)
    )
    (sideward_layers): ModuleList(
      (0-1): 2 x GraphConv(in=384, out=384, normalization=right, activation=None)
    )
  )
  (interaction): BilinearInteraction()
  (linear_combiner): Linear(in_features=768, out_features=384, bias=True)
)
Trainable parameters: 57994624
2025-01-21 11:01:07,093 - trainer - INFO - ================================================================================
2025-01-21 11:01:07,093 - trainer - INFO - Starting epoch 1 at 2025-01-21 11:01:07
2025-01-21 11:03:40,474 - train - INFO - TopicExpan(
  (doc_encoder): BertDocEncoder(
    (model): BertModel(
      (embeddings): BertEmbeddings(
        (word_embeddings): Embedding(30522, 384, padding_idx=0)
        (position_embeddings): Embedding(512, 384)
        (token_type_embeddings): Embedding(2, 384)
        (LayerNorm): LayerNorm((384,), eps=1e-12, elementwise_affine=True)
        (dropout): Dropout(p=0.1, inplace=False)
      )
      (encoder): BertEncoder(
        (layer): ModuleList(
          (0-5): 6 x BertLayer(
            (attention): BertAttention(
              (self): BertSdpaSelfAttention(
                (query): Linear(in_features=384, out_features=384, bias=True)
                (key): Linear(in_features=384, out_features=384, bias=True)
                (value): Linear(in_features=384, out_features=384, bias=True)
                (dropout): Dropout(p=0.1, inplace=False)
              )
              (output): BertSelfOutput(
                (dense): Linear(in_features=384, out_features=384, bias=True)
                (LayerNorm): LayerNorm((384,), eps=1e-12, elementwise_affine=True)
                (dropout): Dropout(p=0.1, inplace=False)
              )
            )
            (intermediate): BertIntermediate(
              (dense): Linear(in_features=384, out_features=1536, bias=True)
              (intermediate_act_fn): GELUActivation()
            )
            (output): BertOutput(
              (dense): Linear(in_features=1536, out_features=384, bias=True)
              (LayerNorm): LayerNorm((384,), eps=1e-12, elementwise_affine=True)
              (dropout): Dropout(p=0.1, inplace=False)
            )
          )
        )
      )
      (pooler): BertPooler(
        (dense): Linear(in_features=384, out_features=384, bias=True)
        (activation): Tanh()
      )
    )
    (input_embeddings): BertEmbeddings(
      (word_embeddings): Embedding(30522, 384, padding_idx=0)
      (position_embeddings): Embedding(512, 384)
      (token_type_embeddings): Embedding(2, 384)
      (LayerNorm): LayerNorm((384,), eps=1e-12, elementwise_affine=True)
      (dropout): Dropout(p=0.1, inplace=False)
    )
  )
  (phrase_decoder): TransformerPhraseDecoder(
    (input_embeddings): BertEmbeddings(
      (word_embeddings): Embedding(30522, 384, padding_idx=0)
      (position_embeddings): Embedding(512, 384)
      (token_type_embeddings): Embedding(2, 384)
      (LayerNorm): LayerNorm((384,), eps=1e-12, elementwise_affine=True)
      (dropout): Dropout(p=0.1, inplace=False)
    )
    (output_embeddings): Linear(in_features=384, out_features=30522, bias=False)
    (context_proj): Linear(in_features=384, out_features=384, bias=True)
    (context_norm): LayerNorm((384,), eps=1e-05, elementwise_affine=True)
    (model): TransformerDecoder(
      (layers): ModuleList(
        (0-7): 8 x TransformerDecoderLayer(
          (self_attn): MultiheadAttention(
            (out_proj): NonDynamicallyQuantizableLinear(in_features=384, out_features=384, bias=True)
          )
          (multihead_attn): MultiheadAttention(
            (out_proj): NonDynamicallyQuantizableLinear(in_features=384, out_features=384, bias=True)
          )
          (linear1): Linear(in_features=384, out_features=2048, bias=True)
          (dropout): Dropout(p=0.1, inplace=False)
          (linear2): Linear(in_features=2048, out_features=384, bias=True)
          (norm1): LayerNorm((384,), eps=1e-05, elementwise_affine=True)
          (norm2): LayerNorm((384,), eps=1e-05, elementwise_affine=True)
          (norm3): LayerNorm((384,), eps=1e-05, elementwise_affine=True)
          (dropout1): Dropout(p=0.1, inplace=False)
          (dropout2): Dropout(p=0.1, inplace=False)
          (dropout3): Dropout(p=0.1, inplace=False)
        )
      )
    )
  )
  (topic_encoder): GCNTopicEncoder(
    (downward_layers): ModuleList(
      (0-1): 2 x GraphConv(in=384, out=384, normalization=right, activation=None)
    )
    (upward_layers): ModuleList(
      (0-1): 2 x GraphConv(in=384, out=384, normalization=right, activation=None)
    )
    (sideward_layers): ModuleList(
      (0-1): 2 x GraphConv(in=384, out=384, normalization=right, activation=None)
    )
  )
  (interaction): BilinearInteraction()
  (linear_combiner): Linear(in_features=768, out_features=384, bias=True)
)
Trainable parameters: 57994624
2025-01-21 11:03:42,799 - trainer - INFO - ================================================================================
2025-01-21 11:03:42,799 - trainer - INFO - Starting epoch 1 at 2025-01-21 11:03:42
2025-01-21 11:03:48,569 - trainer - INFO - Epoch 1 completed at 2025-01-21 11:03:48
2025-01-21 11:03:48,570 - trainer - INFO -     epoch          : 1
…
2025-01-21 11:08:08,793 - trainer - INFO -     val_gen_loss   : 381.1756935119629
2025-01-21 11:08:08,793 - trainer - INFO -     val_perplexity : 22.3211727142334
2025-01-21 11:08:08,793 - trainer - INFO -     val_embedding_sim: 0.1632392406463623
2025-01-21 11:08:08,793 - trainer - INFO - ================================================================================
2025-01-21 11:08:08,793 - trainer - INFO - Starting epoch 43 at 2025-01-21 11:08:08
2025-01-21 11:10:49,041 - train - INFO - TopicExpan(
  (doc_encoder): BertDocEncoder(
    (model): BertModel(
      (embeddings): BertEmbeddings(
        (word_embeddings): Embedding(30522, 384, padding_idx=0)
        (position_embeddings): Embedding(512, 384)
        (token_type_embeddings): Embedding(2, 384)
        (LayerNorm): LayerNorm((384,), eps=1e-12, elementwise_affine=True)
        (dropout): Dropout(p=0.1, inplace=False)
      )
      (encoder): BertEncoder(
        (layer): ModuleList(
          (0-5): 6 x BertLayer(
            (attention): BertAttention(
              (self): BertSdpaSelfAttention(
                (query): Linear(in_features=384, out_features=384, bias=True)
                (key): Linear(in_features=384, out_features=384, bias=True)
                (value): Linear(in_features=384, out_features=384, bias=True)
                (dropout): Dropout(p=0.1, inplace=False)
              )
              (output): BertSelfOutput(
                (dense): Linear(in_features=384, out_features=384, bias=True)
                (LayerNorm): LayerNorm((384,), eps=1e-12, elementwise_affine=True)
                (dropout): Dropout(p=0.1, inplace=False)
              )
            )
            (intermediate): BertIntermediate(
              (dense): Linear(in_features=384, out_features=1536, bias=True)
              (intermediate_act_fn): GELUActivation()
            )
            (output): BertOutput(
              (dense): Linear(in_features=1536, out_features=384, bias=True)
              (LayerNorm): LayerNorm((384,), eps=1e-12, elementwise_affine=True)
              (dropout): Dropout(p=0.1, inplace=False)
            )
          )
        )
      )
      (pooler): BertPooler(
        (dense): Linear(in_features=384, out_features=384, bias=True)
        (activation): Tanh()
      )
    )
    (input_embeddings): BertEmbeddings(
      (word_embeddings): Embedding(30522, 384, padding_idx=0)
      (position_embeddings): Embedding(512, 384)
      (token_type_embeddings): Embedding(2, 384)
      (LayerNorm): LayerNorm((384,), eps=1e-12, elementwise_affine=True)
      (dropout): Dropout(p=0.1, inplace=False)
    )
  )
  (phrase_decoder): TransformerPhraseDecoder(
    (input_embeddings): BertEmbeddings(
      (word_embeddings): Embedding(30522, 384, padding_idx=0)
      (position_embeddings): Embedding(512, 384)
      (token_type_embeddings): Embedding(2, 384)
      (LayerNorm): LayerNorm((384,), eps=1e-12, elementwise_affine=True)
      (dropout): Dropout(p=0.1, inplace=False)
    )
    (output_embeddings): Linear(in_features=384, out_features=30522, bias=False)
    (context_proj): Linear(in_features=384, out_features=384, bias=True)
    (context_norm): LayerNorm((384,), eps=1e-05, elementwise_affine=True)
    (model): TransformerDecoder(
      (layers): ModuleList(
        (0-7): 8 x TransformerDecoderLayer(
          (self_attn): MultiheadAttention(
            (out_proj): NonDynamicallyQuantizableLinear(in_features=384, out_features=384, bias=True)
          )
          (multihead_attn): MultiheadAttention(
            (out_proj): NonDynamicallyQuantizableLinear(in_features=384, out_features=384, bias=True)
          )
          (linear1): Linear(in_features=384, out_features=2048, bias=True)
          (dropout): Dropout(p=0.1, inplace=False)
          (linear2): Linear(in_features=2048, out_features=384, bias=True)
          (norm1): LayerNorm((384,), eps=1e-05, elementwise_affine=True)
          (norm2): LayerNorm((384,), eps=1e-05, elementwise_affine=True)
          (norm3): LayerNorm((384,), eps=1e-05, elementwise_affine=True)
          (dropout1): Dropout(p=0.1, inplace=False)
          (dropout2): Dropout(p=0.1, inplace=False)
          (dropout3): Dropout(p=0.1, inplace=False)
        )
      )
    )
  )
  (topic_encoder): GCNTopicEncoder(
    (downward_layers): ModuleList(
      (0-1): 2 x GraphConv(in=384, out=384, normalization=right, activation=None)
    )
    (upward_layers): ModuleList(
      (0-1): 2 x GraphConv(in=384, out=384, normalization=right, activation=None)
    )
    (sideward_layers): ModuleList(
      (0-1): 2 x GraphConv(in=384, out=384, normalization=right, activation=None)
    )
  )
  (interaction): BilinearInteraction()
  (linear_combiner): Linear(in_features=768, out_features=384, bias=True)
)
Trainable parameters: 57994624
2025-01-21 11:10:51,357 - trainer - INFO - ================================================================================
2025-01-21 11:10:51,357 - trainer - INFO - Starting epoch 1 at 2025-01-21 11:10:51
2025-01-21 11:10:57,127 - trainer - INFO - Epoch 1 completed at 2025-01-21 11:10:57
2025-01-21 11:10:57,127 - trainer - INFO -     epoch          : 1
…
2025-01-21 11:16:21,730 - trainer - INFO -     val_sim_loss   : 18.835834503173828
2025-01-21 11:16:21,730 - trainer - INFO -     val_gen_loss   : 390.66679286956787
2025-01-21 11:16:21,730 - trainer - INFO -     val_perplexity : 23.63766860961914
2025-01-21 11:16:21,730 - trainer - INFO -     val_embedding_sim: 0.1520335078239441
2025-01-21 11:16:21,730 - trainer - INFO - Validation performance didn't improve for 15 epochs. Training stops.
2025-01-21 11:25:51,718 - train - INFO - TopicExpan(
  (doc_encoder): BertDocEncoder(
    (model): BertModel(
      (embeddings): BertEmbeddings(
        (word_embeddings): Embedding(30522, 384, padding_idx=0)
        (position_embeddings): Embedding(512, 384)
        (token_type_embeddings): Embedding(2, 384)
        (LayerNorm): LayerNorm((384,), eps=1e-12, elementwise_affine=True)
        (dropout): Dropout(p=0.1, inplace=False)
      )
      (encoder): BertEncoder(
        (layer): ModuleList(
          (0-5): 6 x BertLayer(
            (attention): BertAttention(
              (self): BertSdpaSelfAttention(
                (query): Linear(in_features=384, out_features=384, bias=True)
                (key): Linear(in_features=384, out_features=384, bias=True)
                (value): Linear(in_features=384, out_features=384, bias=True)
                (dropout): Dropout(p=0.1, inplace=False)
              )
              (output): BertSelfOutput(
                (dense): Linear(in_features=384, out_features=384, bias=True)
                (LayerNorm): LayerNorm((384,), eps=1e-12, elementwise_affine=True)
                (dropout): Dropout(p=0.1, inplace=False)
              )
            )
            (intermediate): BertIntermediate(
              (dense): Linear(in_features=384, out_features=1536, bias=True)
              (intermediate_act_fn): GELUActivation()
            )
            (output): BertOutput(
              (dense): Linear(in_features=1536, out_features=384, bias=True)
              (LayerNorm): LayerNorm((384,), eps=1e-12, elementwise_affine=True)
              (dropout): Dropout(p=0.1, inplace=False)
            )
          )
        )
      )
      (pooler): BertPooler(
        (dense): Linear(in_features=384, out_features=384, bias=True)
        (activation): Tanh()
      )
    )
    (input_embeddings): BertEmbeddings(
      (word_embeddings): Embedding(30522, 384, padding_idx=0)
      (position_embeddings): Embedding(512, 384)
      (token_type_embeddings): Embedding(2, 384)
      (LayerNorm): LayerNorm((384,), eps=1e-12, elementwise_affine=True)
      (dropout): Dropout(p=0.1, inplace=False)
    )
  )
  (phrase_decoder): TransformerPhraseDecoder(
    (input_embeddings): BertEmbeddings(
      (word_embeddings): Embedding(30522, 384, padding_idx=0)
      (position_embeddings): Embedding(512, 384)
      (token_type_embeddings): Embedding(2, 384)
      (LayerNorm): LayerNorm((384,), eps=1e-12, elementwise_affine=True)
      (dropout): Dropout(p=0.1, inplace=False)
    )
    (output_embeddings): Linear(in_features=384, out_features=30522, bias=False)
    (context_proj): Linear(in_features=384, out_features=384, bias=True)
    (context_norm): LayerNorm((384,), eps=1e-05, elementwise_affine=True)
    (model): TransformerDecoder(
      (layers): ModuleList(
        (0-7): 8 x TransformerDecoderLayer(
          (self_attn): MultiheadAttention(
            (out_proj): NonDynamicallyQuantizableLinear(in_features=384, out_features=384, bias=True)
          )
          (multihead_attn): MultiheadAttention(
            (out_proj): NonDynamicallyQuantizableLinear(in_features=384, out_features=384, bias=True)
          )
          (linear1): Linear(in_features=384, out_features=2048, bias=True)
          (dropout): Dropout(p=0.1, inplace=False)
          (linear2): Linear(in_features=2048, out_features=384, bias=True)
          (norm1): LayerNorm((384,), eps=1e-05, elementwise_affine=True)
          (norm2): LayerNorm((384,), eps=1e-05, elementwise_affine=True)
          (norm3): LayerNorm((384,), eps=1e-05, elementwise_affine=True)
          (dropout1): Dropout(p=0.1, inplace=False)
          (dropout2): Dropout(p=0.1, inplace=False)
          (dropout3): Dropout(p=0.1, inplace=False)
        )
      )
    )
  )
  (topic_encoder): GCNTopicEncoder(
    (downward_layers): ModuleList(
      (0-1): 2 x GraphConv(in=384, out=384, normalization=right, activation=None)
    )
    (upward_layers): ModuleList(
      (0-1): 2 x GraphConv(in=384, out=384, normalization=right, activation=None)
    )
    (sideward_layers): ModuleList(
      (0-1): 2 x GraphConv(in=384, out=384, normalization=right, activation=None)
    )
  )
  (interaction): BilinearInteraction()
  (linear_combiner): Linear(in_features=768, out_features=384, bias=True)
)
Trainable parameters: 57994624
2025-01-21 11:25:54,381 - trainer - INFO - ================================================================================
2025-01-21 11:25:54,381 - trainer - INFO - Starting epoch 1 at 2025-01-21 11:25:54
2025-01-21 11:28:40,589 - train - INFO - TopicExpan(
  (doc_encoder): BertDocEncoder(
    (model): BertModel(
      (embeddings): BertEmbeddings(
        (word_embeddings): Embedding(30522, 384, padding_idx=0)
        (position_embeddings): Embedding(512, 384)
        (token_type_embeddings): Embedding(2, 384)
        (LayerNorm): LayerNorm((384,), eps=1e-12, elementwise_affine=True)
        (dropout): Dropout(p=0.1, inplace=False)
      )
      (encoder): BertEncoder(
        (layer): ModuleList(
          (0-5): 6 x BertLayer(
            (attention): BertAttention(
              (self): BertSdpaSelfAttention(
                (query): Linear(in_features=384, out_features=384, bias=True)
                (key): Linear(in_features=384, out_features=384, bias=True)
                (value): Linear(in_features=384, out_features=384, bias=True)
                (dropout): Dropout(p=0.1, inplace=False)
              )
              (output): BertSelfOutput(
                (dense): Linear(in_features=384, out_features=384, bias=True)
                (LayerNorm): LayerNorm((384,), eps=1e-12, elementwise_affine=True)
                (dropout): Dropout(p=0.1, inplace=False)
              )
            )
            (intermediate): BertIntermediate(
              (dense): Linear(in_features=384, out_features=1536, bias=True)
              (intermediate_act_fn): GELUActivation()
            )
            (output): BertOutput(
              (dense): Linear(in_features=1536, out_features=384, bias=True)
              (LayerNorm): LayerNorm((384,), eps=1e-12, elementwise_affine=True)
              (dropout): Dropout(p=0.1, inplace=False)
            )
          )
        )
      )
      (pooler): BertPooler(
        (dense): Linear(in_features=384, out_features=384, bias=True)
        (activation): Tanh()
      )
    )
    (input_embeddings): BertEmbeddings(
      (word_embeddings): Embedding(30522, 384, padding_idx=0)
      (position_embeddings): Embedding(512, 384)
      (token_type_embeddings): Embedding(2, 384)
      (LayerNorm): LayerNorm((384,), eps=1e-12, elementwise_affine=True)
      (dropout): Dropout(p=0.1, inplace=False)
    )
  )
  (phrase_decoder): TransformerPhraseDecoder(
    (input_embeddings): BertEmbeddings(
      (word_embeddings): Embedding(30522, 384, padding_idx=0)
      (position_embeddings): Embedding(512, 384)
      (token_type_embeddings): Embedding(2, 384)
      (LayerNorm): LayerNorm((384,), eps=1e-12, elementwise_affine=True)
      (dropout): Dropout(p=0.1, inplace=False)
    )
    (output_embeddings): Linear(in_features=384, out_features=30522, bias=False)
    (context_proj): Linear(in_features=384, out_features=384, bias=True)
    (context_norm): LayerNorm((384,), eps=1e-05, elementwise_affine=True)
    (model): TransformerDecoder(
      (layers): ModuleList(
        (0-7): 8 x TransformerDecoderLayer(
          (self_attn): MultiheadAttention(
            (out_proj): NonDynamicallyQuantizableLinear(in_features=384, out_features=384, bias=True)
          )
          (multihead_attn): MultiheadAttention(
            (out_proj): NonDynamicallyQuantizableLinear(in_features=384, out_features=384, bias=True)
          )
          (linear1): Linear(in_features=384, out_features=2048, bias=True)
          (dropout): Dropout(p=0.1, inplace=False)
          (linear2): Linear(in_features=2048, out_features=384, bias=True)
          (norm1): LayerNorm((384,), eps=1e-05, elementwise_affine=True)
          (norm2): LayerNorm((384,), eps=1e-05, elementwise_affine=True)
          (norm3): LayerNorm((384,), eps=1e-05, elementwise_affine=True)
          (dropout1): Dropout(p=0.1, inplace=False)
          (dropout2): Dropout(p=0.1, inplace=False)
          (dropout3): Dropout(p=0.1, inplace=False)
        )
      )
    )
  )
  (topic_encoder): GCNTopicEncoder(
    (downward_layers): ModuleList(
      (0-1): 2 x GraphConv(in=384, out=384, normalization=right, activation=None)
    )
    (upward_layers): ModuleList(
      (0-1): 2 x GraphConv(in=384, out=384, normalization=right, activation=None)
    )
    (sideward_layers): ModuleList(
      (0-1): 2 x GraphConv(in=384, out=384, normalization=right, activation=None)
    )
  )
  (interaction): BilinearInteraction()
  (linear_combiner): Linear(in_features=768, out_features=384, bias=True)
)
Trainable parameters: 57994624
2025-01-21 11:28:42,918 - trainer - INFO - ================================================================================
2025-01-21 11:28:42,918 - trainer - INFO - Starting epoch 1 at 2025-01-21 11:28:42
2025-01-21 11:33:15,088 - train - INFO - TopicExpan(
  (doc_encoder): BertDocEncoder(
    (model): BertModel(
      (embeddings): BertEmbeddings(
        (word_embeddings): Embedding(30522, 384, padding_idx=0)
        (position_embeddings): Embedding(512, 384)
        (token_type_embeddings): Embedding(2, 384)
        (LayerNorm): LayerNorm((384,), eps=1e-12, elementwise_affine=True)
        (dropout): Dropout(p=0.1, inplace=False)
      )
      (encoder): BertEncoder(
        (layer): ModuleList(
          (0-5): 6 x BertLayer(
            (attention): BertAttention(
              (self): BertSdpaSelfAttention(
                (query): Linear(in_features=384, out_features=384, bias=True)
                (key): Linear(in_features=384, out_features=384, bias=True)
                (value): Linear(in_features=384, out_features=384, bias=True)
                (dropout): Dropout(p=0.1, inplace=False)
              )
              (output): BertSelfOutput(
                (dense): Linear(in_features=384, out_features=384, bias=True)
                (LayerNorm): LayerNorm((384,), eps=1e-12, elementwise_affine=True)
                (dropout): Dropout(p=0.1, inplace=False)
              )
            )
            (intermediate): BertIntermediate(
              (dense): Linear(in_features=384, out_features=1536, bias=True)
              (intermediate_act_fn): GELUActivation()
            )
            (output): BertOutput(
              (dense): Linear(in_features=1536, out_features=384, bias=True)
              (LayerNorm): LayerNorm((384,), eps=1e-12, elementwise_affine=True)
              (dropout): Dropout(p=0.1, inplace=False)
            )
          )
        )
      )
      (pooler): BertPooler(
        (dense): Linear(in_features=384, out_features=384, bias=True)
        (activation): Tanh()
      )
    )
    (input_embeddings): BertEmbeddings(
      (word_embeddings): Embedding(30522, 384, padding_idx=0)
      (position_embeddings): Embedding(512, 384)
      (token_type_embeddings): Embedding(2, 384)
      (LayerNorm): LayerNorm((384,), eps=1e-12, elementwise_affine=True)
      (dropout): Dropout(p=0.1, inplace=False)
    )
  )
  (phrase_decoder): TransformerPhraseDecoder(
    (input_embeddings): BertEmbeddings(
      (word_embeddings): Embedding(30522, 384, padding_idx=0)
      (position_embeddings): Embedding(512, 384)
      (token_type_embeddings): Embedding(2, 384)
      (LayerNorm): LayerNorm((384,), eps=1e-12, elementwise_affine=True)
      (dropout): Dropout(p=0.1, inplace=False)
    )
    (output_layer): Linear(in_features=384, out_features=30522, bias=False)
    (context_proj): Linear(in_features=384, out_features=384, bias=True)
    (context_norm): LayerNorm((384,), eps=1e-05, elementwise_affine=True)
    (model): TransformerDecoder(
      (layers): ModuleList(
        (0-7): 8 x TransformerDecoderLayer(
          (self_attn): MultiheadAttention(
            (out_proj): NonDynamicallyQuantizableLinear(in_features=384, out_features=384, bias=True)
          )
          (multihead_attn): MultiheadAttention(
            (out_proj): NonDynamicallyQuantizableLinear(in_features=384, out_features=384, bias=True)
          )
          (linear1): Linear(in_features=384, out_features=2048, bias=True)
          (dropout): Dropout(p=0.1, inplace=False)
          (linear2): Linear(in_features=2048, out_features=384, bias=True)
          (norm1): LayerNorm((384,), eps=1e-05, elementwise_affine=True)
          (norm2): LayerNorm((384,), eps=1e-05, elementwise_affine=True)
          (norm3): LayerNorm((384,), eps=1e-05, elementwise_affine=True)
          (dropout1): Dropout(p=0.1, inplace=False)
          (dropout2): Dropout(p=0.1, inplace=False)
          (dropout3): Dropout(p=0.1, inplace=False)
        )
      )
    )
  )
  (topic_encoder): GCNTopicEncoder(
    (downward_layers): ModuleList(
      (0-1): 2 x GraphConv(in=384, out=384, normalization=right, activation=None)
    )
    (upward_layers): ModuleList(
      (0-1): 2 x GraphConv(in=384, out=384, normalization=right, activation=None)
    )
    (sideward_layers): ModuleList(
      (0-1): 2 x GraphConv(in=384, out=384, normalization=right, activation=None)
    )
  )
  (interaction): BilinearInteraction()
  (linear_combiner): Linear(in_features=768, out_features=384, bias=True)
)
Trainable parameters: 57994624
2025-01-21 11:33:17,412 - trainer - INFO - ================================================================================
2025-01-21 11:33:17,412 - trainer - INFO - Starting epoch 1 at 2025-01-21 11:33:17
2025-01-21 11:33:22,458 - trainer - INFO - Epoch 1 completed at 2025-01-21 11:33:22
2025-01-21 11:33:22,459 - trainer - INFO -     epoch          : 1
…
2025-01-21 12:40:19,287 - trainer - INFO -     val_val_gen_loss: 20.740155306729402
2025-01-21 12:40:19,287 - trainer - INFO -     val_val_perplexity: 1017647806.060606
2025-01-21 12:40:19,287 - trainer - INFO -     val_val_embedding_sim: 0.42335074598138983
2025-01-21 12:40:19,287 - trainer - INFO - ================================================================================
2025-01-21 12:40:19,287 - trainer - INFO - Starting epoch 187 at 2025-01-21 12:40:19
2025-01-21 12:43:06,882 - train - INFO - TopicExpan(
  (doc_encoder): BertDocEncoder(
    (model): BertModel(
      (embeddings): BertEmbeddings(
        (word_embeddings): Embedding(30522, 384, padding_idx=0)
        (position_embeddings): Embedding(512, 384)
        (token_type_embeddings): Embedding(2, 384)
        (LayerNorm): LayerNorm((384,), eps=1e-12, elementwise_affine=True)
        (dropout): Dropout(p=0.1, inplace=False)
      )
      (encoder): BertEncoder(
        (layer): ModuleList(
          (0-5): 6 x BertLayer(
            (attention): BertAttention(
              (self): BertSdpaSelfAttention(
                (query): Linear(in_features=384, out_features=384, bias=True)
                (key): Linear(in_features=384, out_features=384, bias=True)
                (value): Linear(in_features=384, out_features=384, bias=True)
                (dropout): Dropout(p=0.1, inplace=False)
              )
              (output): BertSelfOutput(
                (dense): Linear(in_features=384, out_features=384, bias=True)
                (LayerNorm): LayerNorm((384,), eps=1e-12, elementwise_affine=True)
                (dropout): Dropout(p=0.1, inplace=False)
              )
            )
            (intermediate): BertIntermediate(
              (dense): Linear(in_features=384, out_features=1536, bias=True)
              (intermediate_act_fn): GELUActivation()
            )
            (output): BertOutput(
              (dense): Linear(in_features=1536, out_features=384, bias=True)
              (LayerNorm): LayerNorm((384,), eps=1e-12, elementwise_affine=True)
              (dropout): Dropout(p=0.1, inplace=False)
            )
          )
        )
      )
      (pooler): BertPooler(
        (dense): Linear(in_features=384, out_features=384, bias=True)
        (activation): Tanh()
      )
    )
    (input_embeddings): BertEmbeddings(
      (word_embeddings): Embedding(30522, 384, padding_idx=0)
      (position_embeddings): Embedding(512, 384)
      (token_type_embeddings): Embedding(2, 384)
      (LayerNorm): LayerNorm((384,), eps=1e-12, elementwise_affine=True)
      (dropout): Dropout(p=0.1, inplace=False)
    )
  )
  (phrase_decoder): TransformerPhraseDecoder(
    (input_embeddings): BertEmbeddings(
      (word_embeddings): Embedding(30522, 384, padding_idx=0)
      (position_embeddings): Embedding(512, 384)
      (token_type_embeddings): Embedding(2, 384)
      (LayerNorm): LayerNorm((384,), eps=1e-12, elementwise_affine=True)
      (dropout): Dropout(p=0.1, inplace=False)
    )
    (output_layer): Linear(in_features=384, out_features=30522, bias=False)
    (context_proj): Linear(in_features=384, out_features=384, bias=True)
    (context_norm): LayerNorm((384,), eps=1e-05, elementwise_affine=True)
    (model): TransformerDecoder(
      (layers): ModuleList(
        (0-7): 8 x TransformerDecoderLayer(
          (self_attn): MultiheadAttention(
            (out_proj): NonDynamicallyQuantizableLinear(in_features=384, out_features=384, bias=True)
          )
          (multihead_attn): MultiheadAttention(
            (out_proj): NonDynamicallyQuantizableLinear(in_features=384, out_features=384, bias=True)
          )
          (linear1): Linear(in_features=384, out_features=2048, bias=True)
          (dropout): Dropout(p=0.1, inplace=False)
          (linear2): Linear(in_features=2048, out_features=384, bias=True)
          (norm1): LayerNorm((384,), eps=1e-05, elementwise_affine=True)
          (norm2): LayerNorm((384,), eps=1e-05, elementwise_affine=True)
          (norm3): LayerNorm((384,), eps=1e-05, elementwise_affine=True)
          (dropout1): Dropout(p=0.1, inplace=False)
          (dropout2): Dropout(p=0.1, inplace=False)
          (dropout3): Dropout(p=0.1, inplace=False)
        )
      )
    )
  )
  (topic_encoder): GCNTopicEncoder(
    (downward_layers): ModuleList(
      (0-1): 2 x GraphConv(in=384, out=384, normalization=right, activation=None)
    )
    (upward_layers): ModuleList(
      (0-1): 2 x GraphConv(in=384, out=384, normalization=right, activation=None)
    )
    (sideward_layers): ModuleList(
      (0-1): 2 x GraphConv(in=384, out=384, normalization=right, activation=None)
    )
  )
  (interaction): BilinearInteraction()
  (linear_combiner): Linear(in_features=768, out_features=384, bias=True)
)
Trainable parameters: 46274177.0
2025-01-21 12:43:09,275 - trainer - INFO - 
================================================================================
2025-01-21 12:43:09,275 - trainer - INFO - Starting epoch 1 at 2025-01-21 12:43:09
2025-01-21 12:46:12,946 - train - INFO - TopicExpan(
  (doc_encoder): BertDocEncoder(
    (model): BertModel(
      (embeddings): BertEmbeddings(
        (word_embeddings): Embedding(30522, 384, padding_idx=0)
        (position_embeddings): Embedding(512, 384)
        (token_type_embeddings): Embedding(2, 384)
        (LayerNorm): LayerNorm((384,), eps=1e-12, elementwise_affine=True)
        (dropout): Dropout(p=0.1, inplace=False)
      )
      (encoder): BertEncoder(
        (layer): ModuleList(
          (0-5): 6 x BertLayer(
            (attention): BertAttention(
              (self): BertSdpaSelfAttention(
                (query): Linear(in_features=384, out_features=384, bias=True)
                (key): Linear(in_features=384, out_features=384, bias=True)
                (value): Linear(in_features=384, out_features=384, bias=True)
                (dropout): Dropout(p=0.1, inplace=False)
              )
              (output): BertSelfOutput(
                (dense): Linear(in_features=384, out_features=384, bias=True)
                (LayerNorm): LayerNorm((384,), eps=1e-12, elementwise_affine=True)
                (dropout): Dropout(p=0.1, inplace=False)
              )
            )
            (intermediate): BertIntermediate(
              (dense): Linear(in_features=384, out_features=1536, bias=True)
              (intermediate_act_fn): GELUActivation()
            )
            (output): BertOutput(
              (dense): Linear(in_features=1536, out_features=384, bias=True)
              (LayerNorm): LayerNorm((384,), eps=1e-12, elementwise_affine=True)
              (dropout): Dropout(p=0.1, inplace=False)
            )
          )
        )
      )
      (pooler): BertPooler(
        (dense): Linear(in_features=384, out_features=384, bias=True)
        (activation): Tanh()
      )
    )
    (input_embeddings): BertEmbeddings(
      (word_embeddings): Embedding(30522, 384, padding_idx=0)
      (position_embeddings): Embedding(512, 384)
      (token_type_embeddings): Embedding(2, 384)
      (LayerNorm): LayerNorm((384,), eps=1e-12, elementwise_affine=True)
      (dropout): Dropout(p=0.1, inplace=False)
    )
  )
  (phrase_decoder): TransformerPhraseDecoder(
    (input_embeddings): BertEmbeddings(
      (word_embeddings): Embedding(30522, 384, padding_idx=0)
      (position_embeddings): Embedding(512, 384)
      (token_type_embeddings): Embedding(2, 384)
      (LayerNorm): LayerNorm((384,), eps=1e-12, elementwise_affine=True)
      (dropout): Dropout(p=0.1, inplace=False)
    )
    (output_layer): Linear(in_features=384, out_features=30522, bias=False)
    (context_proj): Linear(in_features=384, out_features=384, bias=True)
    (context_norm): LayerNorm((384,), eps=1e-05, elementwise_affine=True)
    (model): TransformerDecoder(
      (layers): ModuleList(
        (0-7): 8 x TransformerDecoderLayer(
          (self_attn): MultiheadAttention(
            (out_proj): NonDynamicallyQuantizableLinear(in_features=384, out_features=384, bias=True)
          )
          (multihead_attn): MultiheadAttention(
            (out_proj): NonDynamicallyQuantizableLinear(in_features=384, out_features=384, bias=True)
          )
          (linear1): Linear(in_features=384, out_features=2048, bias=True)
          (dropout): Dropout(p=0.1, inplace=False)
          (linear2): Linear(in_features=2048, out_features=384, bias=True)
          (norm1): LayerNorm((384,), eps=1e-05, elementwise_affine=True)
          (norm2): LayerNorm((384,), eps=1e-05, elementwise_affine=True)
          (norm3): LayerNorm((384,), eps=1e-05, elementwise_affine=True)
          (dropout1): Dropout(p=0.1, inplace=False)
          (dropout2): Dropout(p=0.1, inplace=False)
          (dropout3): Dropout(p=0.1, inplace=False)
        )
      )
    )
  )
  (topic_encoder): GCNTopicEncoder(
    (downward_layers): ModuleList(
      (0-1): 2 x GraphConv(in=384, out=384, normalization=right, activation=None)
    )
    (upward_layers): ModuleList(
      (0-1): 2 x GraphConv(in=384, out=384, normalization=right, activation=None)
    )
    (sideward_layers): ModuleList(
      (0-1): 2 x GraphConv(in=384, out=384, normalization=right, activation=None)
    )
  )
  (interaction): BilinearInteraction()
  (linear_combiner): Linear(in_features=768, out_features=384, bias=True)
)
Trainable parameters: 46274177.0
2025-01-21 12:46:15,259 - trainer - INFO - 
================================================================================
2025-01-21 12:46:15,259 - trainer - INFO - Starting epoch 1 at 2025-01-21 12:46:15
2025-01-21 12:50:04,942 - train - INFO - TopicExpan(
  (doc_encoder): BertDocEncoder(
    (model): BertModel(
      (embeddings): BertEmbeddings(
        (word_embeddings): Embedding(30522, 384, padding_idx=0)
        (position_embeddings): Embedding(512, 384)
        (token_type_embeddings): Embedding(2, 384)
        (LayerNorm): LayerNorm((384,), eps=1e-12, elementwise_affine=True)
        (dropout): Dropout(p=0.1, inplace=False)
      )
      (encoder): BertEncoder(
        (layer): ModuleList(
          (0-5): 6 x BertLayer(
            (attention): BertAttention(
              (self): BertSdpaSelfAttention(
                (query): Linear(in_features=384, out_features=384, bias=True)
                (key): Linear(in_features=384, out_features=384, bias=True)
                (value): Linear(in_features=384, out_features=384, bias=True)
                (dropout): Dropout(p=0.1, inplace=False)
              )
              (output): BertSelfOutput(
                (dense): Linear(in_features=384, out_features=384, bias=True)
                (LayerNorm): LayerNorm((384,), eps=1e-12, elementwise_affine=True)
                (dropout): Dropout(p=0.1, inplace=False)
              )
            )
            (intermediate): BertIntermediate(
              (dense): Linear(in_features=384, out_features=1536, bias=True)
              (intermediate_act_fn): GELUActivation()
            )
            (output): BertOutput(
              (dense): Linear(in_features=1536, out_features=384, bias=True)
              (LayerNorm): LayerNorm((384,), eps=1e-12, elementwise_affine=True)
              (dropout): Dropout(p=0.1, inplace=False)
            )
          )
        )
      )
      (pooler): BertPooler(
        (dense): Linear(in_features=384, out_features=384, bias=True)
        (activation): Tanh()
      )
    )
    (input_embeddings): BertEmbeddings(
      (word_embeddings): Embedding(30522, 384, padding_idx=0)
      (position_embeddings): Embedding(512, 384)
      (token_type_embeddings): Embedding(2, 384)
      (LayerNorm): LayerNorm((384,), eps=1e-12, elementwise_affine=True)
      (dropout): Dropout(p=0.1, inplace=False)
    )
  )
  (phrase_decoder): TransformerPhraseDecoder(
    (input_embeddings): BertEmbeddings(
      (word_embeddings): Embedding(30522, 384, padding_idx=0)
      (position_embeddings): Embedding(512, 384)
      (token_type_embeddings): Embedding(2, 384)
      (LayerNorm): LayerNorm((384,), eps=1e-12, elementwise_affine=True)
      (dropout): Dropout(p=0.1, inplace=False)
    )
    (output_layer): Linear(in_features=384, out_features=30522, bias=False)
    (context_proj): Linear(in_features=384, out_features=384, bias=True)
    (context_norm): LayerNorm((384,), eps=1e-05, elementwise_affine=True)
    (model): TransformerDecoder(
      (layers): ModuleList(
        (0-7): 8 x TransformerDecoderLayer(
          (self_attn): MultiheadAttention(
            (out_proj): NonDynamicallyQuantizableLinear(in_features=384, out_features=384, bias=True)
          )
          (multihead_attn): MultiheadAttention(
            (out_proj): NonDynamicallyQuantizableLinear(in_features=384, out_features=384, bias=True)
          )
          (linear1): Linear(in_features=384, out_features=2048, bias=True)
          (dropout): Dropout(p=0.1, inplace=False)
          (linear2): Linear(in_features=2048, out_features=384, bias=True)
          (norm1): LayerNorm((384,), eps=1e-05, elementwise_affine=True)
          (norm2): LayerNorm((384,), eps=1e-05, elementwise_affine=True)
          (norm3): LayerNorm((384,), eps=1e-05, elementwise_affine=True)
          (dropout1): Dropout(p=0.1, inplace=False)
          (dropout2): Dropout(p=0.1, inplace=False)
          (dropout3): Dropout(p=0.1, inplace=False)
        )
      )
    )
  )
  (topic_encoder): GCNTopicEncoder(
    (downward_layers): ModuleList(
      (0-1): 2 x GraphConv(in=384, out=384, normalization=right, activation=None)
    )
    (upward_layers): ModuleList(
      (0-1): 2 x GraphConv(in=384, out=384, normalization=right, activation=None)
    )
    (sideward_layers): ModuleList(
      (0-1): 2 x GraphConv(in=384, out=384, normalization=right, activation=None)
    )
  )
  (interaction): BilinearInteraction()
  (linear_combiner): Linear(in_features=768, out_features=384, bias=True)
)
Trainable parameters: 46274177.0
2025-01-21 12:52:02,094 - train - INFO - TopicExpan(
  (doc_encoder): BertDocEncoder(
    (model): BertModel(
      (embeddings): BertEmbeddings(
        (word_embeddings): Embedding(30522, 384, padding_idx=0)
        (position_embeddings): Embedding(512, 384)
        (token_type_embeddings): Embedding(2, 384)
        (LayerNorm): LayerNorm((384,), eps=1e-12, elementwise_affine=True)
        (dropout): Dropout(p=0.1, inplace=False)
      )
      (encoder): BertEncoder(
        (layer): ModuleList(
          (0-5): 6 x BertLayer(
            (attention): BertAttention(
              (self): BertSdpaSelfAttention(
                (query): Linear(in_features=384, out_features=384, bias=True)
                (key): Linear(in_features=384, out_features=384, bias=True)
                (value): Linear(in_features=384, out_features=384, bias=True)
                (dropout): Dropout(p=0.1, inplace=False)
              )
              (output): BertSelfOutput(
                (dense): Linear(in_features=384, out_features=384, bias=True)
                (LayerNorm): LayerNorm((384,), eps=1e-12, elementwise_affine=True)
                (dropout): Dropout(p=0.1, inplace=False)
              )
            )
            (intermediate): BertIntermediate(
              (dense): Linear(in_features=384, out_features=1536, bias=True)
              (intermediate_act_fn): GELUActivation()
            )
            (output): BertOutput(
              (dense): Linear(in_features=1536, out_features=384, bias=True)
              (LayerNorm): LayerNorm((384,), eps=1e-12, elementwise_affine=True)
              (dropout): Dropout(p=0.1, inplace=False)
            )
          )
        )
      )
      (pooler): BertPooler(
        (dense): Linear(in_features=384, out_features=384, bias=True)
        (activation): Tanh()
      )
    )
    (input_embeddings): BertEmbeddings(
      (word_embeddings): Embedding(30522, 384, padding_idx=0)
      (position_embeddings): Embedding(512, 384)
      (token_type_embeddings): Embedding(2, 384)
      (LayerNorm): LayerNorm((384,), eps=1e-12, elementwise_affine=True)
      (dropout): Dropout(p=0.1, inplace=False)
    )
  )
  (phrase_decoder): TransformerPhraseDecoder(
    (input_embeddings): BertEmbeddings(
      (word_embeddings): Embedding(30522, 384, padding_idx=0)
      (position_embeddings): Embedding(512, 384)
      (token_type_embeddings): Embedding(2, 384)
      (LayerNorm): LayerNorm((384,), eps=1e-12, elementwise_affine=True)
      (dropout): Dropout(p=0.1, inplace=False)
    )
    (output_layer): Linear(in_features=384, out_features=30522, bias=False)
    (context_proj): Linear(in_features=384, out_features=384, bias=True)
    (context_norm): LayerNorm((384,), eps=1e-05, elementwise_affine=True)
    (model): TransformerDecoder(
      (layers): ModuleList(
        (0-7): 8 x TransformerDecoderLayer(
          (self_attn): MultiheadAttention(
            (out_proj): NonDynamicallyQuantizableLinear(in_features=384, out_features=384, bias=True)
          )
          (multihead_attn): MultiheadAttention(
            (out_proj): NonDynamicallyQuantizableLinear(in_features=384, out_features=384, bias=True)
          )
          (linear1): Linear(in_features=384, out_features=2048, bias=True)
          (dropout): Dropout(p=0.1, inplace=False)
          (linear2): Linear(in_features=2048, out_features=384, bias=True)
          (norm1): LayerNorm((384,), eps=1e-05, elementwise_affine=True)
          (norm2): LayerNorm((384,), eps=1e-05, elementwise_affine=True)
          (norm3): LayerNorm((384,), eps=1e-05, elementwise_affine=True)
          (dropout1): Dropout(p=0.1, inplace=False)
          (dropout2): Dropout(p=0.1, inplace=False)
          (dropout3): Dropout(p=0.1, inplace=False)
        )
      )
    )
  )
  (topic_encoder): GCNTopicEncoder(
    (downward_layers): ModuleList(
      (0-1): 2 x GraphConv(in=384, out=384, normalization=right, activation=None)
    )
    (upward_layers): ModuleList(
      (0-1): 2 x GraphConv(in=384, out=384, normalization=right, activation=None)
    )
    (sideward_layers): ModuleList(
      (0-1): 2 x GraphConv(in=384, out=384, normalization=right, activation=None)
    )
  )
  (interaction): BilinearInteraction()
  (linear_combiner): Linear(in_features=768, out_features=384, bias=True)
)
Trainable parameters: 46274177.0
2025-01-21 12:52:04,406 - trainer - INFO - 
================================================================================
2025-01-21 12:52:04,406 - trainer - INFO - Starting epoch 1 at 2025-01-21 12:52:04
2025-01-21 12:55:46,162 - train - INFO - TopicExpan(
  (doc_encoder): BertDocEncoder(
    (model): BertModel(
      (embeddings): BertEmbeddings(
        (word_embeddings): Embedding(30522, 384, padding_idx=0)
        (position_embeddings): Embedding(512, 384)
        (token_type_embeddings): Embedding(2, 384)
        (LayerNorm): LayerNorm((384,), eps=1e-12, elementwise_affine=True)
        (dropout): Dropout(p=0.1, inplace=False)
      )
      (encoder): BertEncoder(
        (layer): ModuleList(
          (0-5): 6 x BertLayer(
            (attention): BertAttention(
              (self): BertSdpaSelfAttention(
                (query): Linear(in_features=384, out_features=384, bias=True)
                (key): Linear(in_features=384, out_features=384, bias=True)
                (value): Linear(in_features=384, out_features=384, bias=True)
                (dropout): Dropout(p=0.1, inplace=False)
              )
              (output): BertSelfOutput(
                (dense): Linear(in_features=384, out_features=384, bias=True)
                (LayerNorm): LayerNorm((384,), eps=1e-12, elementwise_affine=True)
                (dropout): Dropout(p=0.1, inplace=False)
              )
            )
            (intermediate): BertIntermediate(
              (dense): Linear(in_features=384, out_features=1536, bias=True)
              (intermediate_act_fn): GELUActivation()
            )
            (output): BertOutput(
              (dense): Linear(in_features=1536, out_features=384, bias=True)
              (LayerNorm): LayerNorm((384,), eps=1e-12, elementwise_affine=True)
              (dropout): Dropout(p=0.1, inplace=False)
            )
          )
        )
      )
      (pooler): BertPooler(
        (dense): Linear(in_features=384, out_features=384, bias=True)
        (activation): Tanh()
      )
    )
    (input_embeddings): BertEmbeddings(
      (word_embeddings): Embedding(30522, 384, padding_idx=0)
      (position_embeddings): Embedding(512, 384)
      (token_type_embeddings): Embedding(2, 384)
      (LayerNorm): LayerNorm((384,), eps=1e-12, elementwise_affine=True)
      (dropout): Dropout(p=0.1, inplace=False)
    )
  )
  (phrase_decoder): TransformerPhraseDecoder(
    (input_embeddings): BertEmbeddings(
      (word_embeddings): Embedding(30522, 384, padding_idx=0)
      (position_embeddings): Embedding(512, 384)
      (token_type_embeddings): Embedding(2, 384)
      (LayerNorm): LayerNorm((384,), eps=1e-12, elementwise_affine=True)
      (dropout): Dropout(p=0.1, inplace=False)
    )
    (output_layer): Linear(in_features=384, out_features=30522, bias=False)
    (context_proj): Linear(in_features=384, out_features=384, bias=True)
    (context_norm): LayerNorm((384,), eps=1e-05, elementwise_affine=True)
    (model): TransformerDecoder(
      (layers): ModuleList(
        (0-7): 8 x TransformerDecoderLayer(
          (self_attn): MultiheadAttention(
            (out_proj): NonDynamicallyQuantizableLinear(in_features=384, out_features=384, bias=True)
          )
          (multihead_attn): MultiheadAttention(
            (out_proj): NonDynamicallyQuantizableLinear(in_features=384, out_features=384, bias=True)
          )
          (linear1): Linear(in_features=384, out_features=2048, bias=True)
          (dropout): Dropout(p=0.1, inplace=False)
          (linear2): Linear(in_features=2048, out_features=384, bias=True)
          (norm1): LayerNorm((384,), eps=1e-05, elementwise_affine=True)
          (norm2): LayerNorm((384,), eps=1e-05, elementwise_affine=True)
          (norm3): LayerNorm((384,), eps=1e-05, elementwise_affine=True)
          (dropout1): Dropout(p=0.1, inplace=False)
          (dropout2): Dropout(p=0.1, inplace=False)
          (dropout3): Dropout(p=0.1, inplace=False)
        )
      )
    )
  )
  (topic_encoder): GCNTopicEncoder(
    (downward_layers): ModuleList(
      (0-1): 2 x GraphConv(in=384, out=384, normalization=right, activation=None)
    )
    (upward_layers): ModuleList(
      (0-1): 2 x GraphConv(in=384, out=384, normalization=right, activation=None)
    )
    (sideward_layers): ModuleList(
      (0-1): 2 x GraphConv(in=384, out=384, normalization=right, activation=None)
    )
  )
  (interaction): BilinearInteraction()
  (linear_combiner): Linear(in_features=768, out_features=384, bias=True)
)
Trainable parameters: 46274177.0
2025-01-21 12:57:57,134 - train - INFO - TopicExpan(
  (doc_encoder): BertDocEncoder(
    (model): BertModel(
      (embeddings): BertEmbeddings(
        (word_embeddings): Embedding(30522, 384, padding_idx=0)
        (position_embeddings): Embedding(512, 384)
        (token_type_embeddings): Embedding(2, 384)
        (LayerNorm): LayerNorm((384,), eps=1e-12, elementwise_affine=True)
        (dropout): Dropout(p=0.1, inplace=False)
      )
      (encoder): BertEncoder(
        (layer): ModuleList(
          (0-5): 6 x BertLayer(
            (attention): BertAttention(
              (self): BertSdpaSelfAttention(
                (query): Linear(in_features=384, out_features=384, bias=True)
                (key): Linear(in_features=384, out_features=384, bias=True)
                (value): Linear(in_features=384, out_features=384, bias=True)
                (dropout): Dropout(p=0.1, inplace=False)
              )
              (output): BertSelfOutput(
                (dense): Linear(in_features=384, out_features=384, bias=True)
                (LayerNorm): LayerNorm((384,), eps=1e-12, elementwise_affine=True)
                (dropout): Dropout(p=0.1, inplace=False)
              )
            )
            (intermediate): BertIntermediate(
              (dense): Linear(in_features=384, out_features=1536, bias=True)
              (intermediate_act_fn): GELUActivation()
            )
            (output): BertOutput(
              (dense): Linear(in_features=1536, out_features=384, bias=True)
              (LayerNorm): LayerNorm((384,), eps=1e-12, elementwise_affine=True)
              (dropout): Dropout(p=0.1, inplace=False)
            )
          )
        )
      )
      (pooler): BertPooler(
        (dense): Linear(in_features=384, out_features=384, bias=True)
        (activation): Tanh()
      )
    )
    (input_embeddings): BertEmbeddings(
      (word_embeddings): Embedding(30522, 384, padding_idx=0)
      (position_embeddings): Embedding(512, 384)
      (token_type_embeddings): Embedding(2, 384)
      (LayerNorm): LayerNorm((384,), eps=1e-12, elementwise_affine=True)
      (dropout): Dropout(p=0.1, inplace=False)
    )
  )
  (phrase_decoder): TransformerPhraseDecoder(
    (input_embeddings): BertEmbeddings(
      (word_embeddings): Embedding(30522, 384, padding_idx=0)
      (position_embeddings): Embedding(512, 384)
      (token_type_embeddings): Embedding(2, 384)
      (LayerNorm): LayerNorm((384,), eps=1e-12, elementwise_affine=True)
      (dropout): Dropout(p=0.1, inplace=False)
    )
    (output_layer): Linear(in_features=384, out_features=30522, bias=False)
    (context_proj): Linear(in_features=384, out_features=384, bias=True)
    (context_norm): LayerNorm((384,), eps=1e-05, elementwise_affine=True)
    (model): TransformerDecoder(
      (layers): ModuleList(
        (0-7): 8 x TransformerDecoderLayer(
          (self_attn): MultiheadAttention(
            (out_proj): NonDynamicallyQuantizableLinear(in_features=384, out_features=384, bias=True)
          )
          (multihead_attn): MultiheadAttention(
            (out_proj): NonDynamicallyQuantizableLinear(in_features=384, out_features=384, bias=True)
          )
          (linear1): Linear(in_features=384, out_features=2048, bias=True)
          (dropout): Dropout(p=0.1, inplace=False)
          (linear2): Linear(in_features=2048, out_features=384, bias=True)
          (norm1): LayerNorm((384,), eps=1e-05, elementwise_affine=True)
          (norm2): LayerNorm((384,), eps=1e-05, elementwise_affine=True)
          (norm3): LayerNorm((384,), eps=1e-05, elementwise_affine=True)
          (dropout1): Dropout(p=0.1, inplace=False)
          (dropout2): Dropout(p=0.1, inplace=False)
          (dropout3): Dropout(p=0.1, inplace=False)
        )
      )
    )
  )
  (topic_encoder): GCNTopicEncoder(
    (downward_layers): ModuleList(
      (0-1): 2 x GraphConv(in=384, out=384, normalization=right, activation=None)
    )
    (upward_layers): ModuleList(
      (0-1): 2 x GraphConv(in=384, out=384, normalization=right, activation=None)
    )
    (sideward_layers): ModuleList(
      (0-1): 2 x GraphConv(in=384, out=384, normalization=right, activation=None)
    )
  )
  (interaction): BilinearInteraction()
  (linear_combiner): Linear(in_features=768, out_features=384, bias=True)
)
Trainable parameters: 46274177.0
2025-01-21 12:58:04,658 - trainer - INFO -     epoch          : 1
2025-01-21 12:58:04,658 - trainer - INFO -     loss           : 7.44499379938299
2025-01-21 12:58:04,658 - trainer - INFO -     sim_loss       : 2.813464748136925
2025-01-21 12:58:04,658 - trainer - INFO -     gen_loss       : 9.429935339725379
2025-01-21 12:58:04,658 - trainer - INFO -     val_loss       : 7.4923428333166875
…
